dqn.pth (torch, 8321 bytes, 6 tensors)

fc1.0.weight f4 [32, 8]
00000000: 5b66 b7bf 4741 91bc a3a7 22bf f096 a3be
00000010: 1ebe 5c3d f006 46bf 9bbb 12be b9da 80bf
00000020: b2b4 283e 8e69 e03d 25ca 95be 524d 01bf
00000030: 5d25 c4be 98ce b4bf 2dae 68be 48c4 b3bd
00000040: 8d62 ad3e 4c48 9c3e fa99 c3be e0ab ccbc
00000050: 538e c73b 681b 1f3b 4850 b9be 8898 8ebd
00000060: 430e 95be a4b8 b13e 29a7 8fbe 98b4 273e
00000070: 9338 723f 04c6 783f 0e24 2c3e 7a10 e93e
00000080: 8734 2a3e e2ad 973e 5d0f 8e3d cc34 0540
00000090: 14f8 45bf d719 95be 8a46 13bf 8ca6 20be
000000a0: 6721 c93e c5b8 44bf 4095 163f 3102 433d
000000b0: 03da c9be 47fc 1f3d bed8 2b3f 6636 13bc
000000c0: 5469 4e3d f03f c7be 604b b93d ee5c a0bf
000000d0: d4f5 b6bf b58d 213f d80d dd3e fb12 d13e
000000e0: db1d f13e fe02 f73a d859 803e 1b83 d9be
000000f0: 254e 21bf c635 5cbe c3c8 c83d 4cdd fb3c
00000100: 554e 7a3d 9652 f2be 5474 e63d 2759 89bf
00000110: 9cd6 62bf 4548 3fbf 0f43 403e 000b 8d3e
00000120: 644b 67bf 5eaf 833d a5ad 4ebe 7098 35be
00000130: aef7 44be b200 e7be 6167 0f3c 6bc0 d8be
00000140: 28c6 403f 5000 ba3e c5fb ed3e df78 cb3e
00000150: 0af1 1f3f 3c6e 213f 38ca 813e f48d 063d
00000160: caae e13d ad53 7c3f aa67 d93d 318a 053e
00000170: b7ff eebe 5fd5 b33f 34dd 51be c354 f3be
00000180: 0e63 d03e 73cf 97be f653 02c0 cc9e 98bf
00000190: fc5d 84be fa1d bb3b 278e 62be 801b e53e
000001a0: 6e11 cabd 3013 553e 86b0 e23e 61e9 f93e
000001b0: eb9b 023f b62d 383f e859 1c3f d39e eabd
000001c0: 15d7 09bf 3591 2e3e c90a 56bf 2c3e 47be
000001d0: 40ff 3c3f 03a4 0c3f 1b28 3e3e 4208 11bf
000001e0: 9e3b 223e 76c2 1bbd 3736 b53e 221a bdbe
000001f0: 9577 5d40 da4d 96bd ca85 bbbd bc2c 9f3e
00000200: 6269 ca3e 3b99 173e a888 1f3f 6849 cfbe
00000210: d701 5abf 1aa6 02bf 0b59 973d 6020 513e
00000220: d0fd 9b3e ef14 9b3e 6037 3a3f 3088 0dbe
00000230: b265 85be b7a3 94bf 023d b6be c092 78be
00000240: 446a 14bf 9eb8 aebe 341a 2d3f e4b8 14bf
00000250: 9cc6 bdbf 1960 863d 8882 12bd 16ab 203e
00000260: 6f24 0e3f d720 4abc c97d 683f 4f7b 56bd
00000270: c9e0 a13f 7646 203e ecdb 34bf d015 a73e
00000280: aaea 96be bf6b b23e a700 1cbf 9b5f 113f
00000290: ad07 183f 3d27 7bbe 05ae 49bf 285e aebe
000002a0: d7a8 ab3e d196 0c3e da15 0c3e 0e96 863e
000002b0: d88c 223e 00fb 87bf 4f0c 8fbc 51f8 d53e
000002c0: 0776 803e 4848 00be 2a7c aebd 4b62 f53e
000002d0: 312a 263e 9f08 65be ecbc 2ebe d85a 06be
000002e0: 805a 9e3e d90f bfbe 5593 273f 4fa8 48bf
000002f0: aa19 aebf 0b9a b6be 37d6 0c3f 8522 373e
00000300: fd39 05bf 4634 39bf 4ef4 9dbe 3996 20bf
00000310: c5f5 963f 14b2 b83f fbfc c53e 5529 d5bd
00000320: 2f5e 243c 20a4 403e 6818 a4be cae0 1dbf
00000330: 59eb 733e 811d c0be 6dd7 d2be d7d5 0cbe
00000340: f1ed cebe 63f7 1bbf ddbb 723e cfc8 20bf
00000350: 0f5a 7b3f 4eb2 983f 8463 033f 76cc aabe
00000360: ef14 5e3e 6f4e 703d 589f f43e 120c 9ebe
00000370: e686 07be 2624 063f d2ef a43e a090 23bd
00000380: 58c8 b53f 3b27 11bc 24cd 5a3f 8270 783e
00000390: 08cc a33e c9d9 863f 6d52 0dbd 9971 a03d
000003a0: 63b4 a83c 6156 cabf 277b f1bf c548 37be
000003b0: fb7c 1f3e 89f4 02be 7d8d 7c3e 8c0b 6f3f
000003c0: cfcb ee3e 5977 3ebf 04f7 a0be 66bb 0cbf
000003d0: 75c7 953e 38a0 0c3f 1ade 723e 23d0 b03e
000003e0: d54e 5ebd 6a8f 033f 0800 483f 724b a2be
000003f0: e434 8f3d 74e9 f6bd fb66 47be d2af aa3e
-1.4328111 -0.017731322 -0.63537043 -0.31951094 0.053892247 -0.77354336 -0.14329378 -1.0066749
0.1647518 0.10957633 -0.29255787 -0.50508606 -0.38309756 -1.4125547 -0.22722693 -0.08777672
0.3386425 0.30523908 -0.38203412 -0.0249843 0.0060899644 0.002427781 -0.36194062 -0.06962687
-0.29112443 0.34711182 -0.2805722 0.16377485 0.94617575 0.9717715 0.16810629 0.45520383
0.166216 0.2962485 0.06936524 2.0813475 -0.7733166 -0.29121277 -0.5752951 -0.15688533
0.39283296 -0.76844436 0.5882149 0.04760951 -0.39424142 0.03905895 0.671276 -0.008985138
0.050393417 -0.38915968 0.0904758 -1.252836 -1.4293771 0.6310685 0.43174624 0.40834793
0.4709309 0.0018845496 0.25068545 -0.42482838 -0.63009864 -0.21504888 0.09803917 0.030745171
0.06110986 -0.47328633 0.112526566 -1.0730332 -0.8860872 -0.7471965 0.18775581 0.27547455
-0.9034941 0.06429933 -0.20183428 -0.17733932 -0.19235107 -0.45117718 0.008752675 -0.42334303
0.7530236 0.36328363 0.46481147 0.39740655 0.6247717 0.6305883 0.25349593 0.03285022
0.110196665 0.9856518 0.106154755 0.13040997 -0.4667947 1.4049491 -0.20494539 -0.47525606
0.40700573 -0.2965046 -2.0363746 -1.1923461 -0.25852954 0.0057103606 -0.2212454 0.44747543
-0.09866606 0.208081 0.44275302 0.48810866 0.5101916 0.7194475 0.61074686 -0.114560746
-0.53843814 0.1704758 -0.83610207 -0.1945731 0.7382698 0.5493776 0.18569987 -0.56653225
0.15843055 -0.03802725 0.35392925 -0.36934 3.4604237 -0.07339068 -0.091563776 0.31088817
0.39533526 0.14804547 0.62317896 -0.40485692 -0.8515906 -0.510347 0.073900305 0.20422506
0.3046708 0.3028941 0.72740746 -0.13821483 -0.2605415 -1.1612462 -0.3559342 -0.2427473
-0.5797465 -0.34125227 0.6761811 -0.5809462 -1.4826236 0.06561298 -0.035769016 0.15690264
0.55524343 -0.012336931 0.9081693 -0.05236369 1.2646724 0.15651879 -0.70648074 0.3263383
-0.2947591 0.3484783 -0.60938495 0.5678651 0.5938671 -0.24526687 -0.7878116 -0.3405621
0.33527252 0.13729407 0.1368021 0.26286358 0.1587404 -1.0623474 -0.017461924 0.41791013
0.25090048 -0.12527573 -0.08519776 0.47926554 0.16227032 -0.2236657 -0.17064255 -0.13120592
0.3092842 -0.37316778 0.65459186 -0.7838182 -1.3601582 -0.356644 0.55014366 0.17884262
-0.5204161 -0.7234539 -0.30850452 -0.6272922 1.1793753 1.4429345 0.3866957 -0.10408274
0.010032221 0.18812609 -0.3204987 -0.61671126 0.23820247 -0.3752251 -0.41179982 -0.13753448
-0.4041591 -0.6092436 0.23704477 -0.6280641 0.98184294 1.1929414 0.51323724 -0.33359116
0.21687673 0.05866855 0.4777782 -0.30868584 -0.13235053 0.5239891 0.32214218 -0.039932847
1.4201765 -0.008859451 0.8546927 0.24261668 0.319916 1.0535213 -0.034502435 0.07834167
0.020593828 -1.5807611 -1.8865708 -0.17898853 0.1557502 -0.12788595 0.24663348 0.93376994
0.4663987 -0.7440086 -0.31438458 -0.5497345 0.29253736 0.54931974 0.23717538 0.34533796
-0.0542744 0.5139071 0.7812505 -0.31698185 0.0699251 -0.120562464 -0.19472878 0.33337265

fc1.0.bias f4 [32]
00000000: 22f3 b5bd 1cae b63e cf40 eb3e a680 203e
00000010: 114a 2a3e f8eb ba3e de85 463f 7d80 eb3e
00000020: 7252 07be 1d6c 73bd 8255 7fbe 7fe8 d63e
00000030: 6169 e13e 4468 e23e 5cd2 df3e c44e f73d
00000040: b492 503e 8284 6e3f 82a3 aebe ec89 16be
00000050: f12a 243e d260 b63e ecea dabe 6f9a 273f
00000060: 93ec 08bf b5a1 6c3e ab58 33bd 9993 a03e
00000070: c6cc 31be 0032 593e 2d94 953e fec6 463f
-0.088842645 0.3567971 0.45947883 0.15674075 0.16629817 0.36508155 0.77548015 0.45996466
-0.13215044 -0.059429277 -0.24934962 0.41974255 0.4402571 0.44220173 0.4371518 0.1207557
0.20368463 0.9317094 -0.34109122 -0.1470105 0.16032006 0.35620743 -0.42757356 0.6547002
-0.53485984 0.23108561 -0.043785732 0.31362608 -0.17363271 0.2121048 0.29214612 0.7764739

fc2.0.weight f4 [32, 32]
00000000: a82e b0be c492 22be e867 54be 0307 71bd
00000010: d38c 6abf 86d2 b73e 15df b03d 6a17 74bd
00000020: f304 03bf 1cf0 aa3e 5b57 9c3f b7a4 74bc
00000030: ee8d 05c0 1c08 a33e cc58 a7be fae2 7d3e
00000040: f375 b83e 9cc0 b53e ae58 903d b5ba 66bf
00000050: 5a68 27bf 2f93 bd3e 8778 adbd 2df2 433e
00000060: 35d5 13be 2b65 393e 6d01 d43c d68d a43e
00000070: fc36 3fbc 7c89 623e 95d1 cd3d 5fa7 793e
00000080: 1ad8 0f3f 94fa 00bf c603 913f eb65 e4be
00000090: c7a3 ab3d c197 293f ef8c bf3e 5fee ffbe
000000a0: 4375 81be e671 a8bf 2110 353f 6d94 343f
000000b0: 400c 963e 1d8c 81be ca2c 03bf 72af 003f
000000c0: 0279 21bf 330e 173f 6874 8c3f 9094 0dbf
000000d0: 1e41 c1bd 0cab 12bf 70e2 93be be98 f6bd
000000e0: deb4 94be fc3d 3dbe b253 8fbd 4570 c6be
000000f0: 064a aabf 0e95 26be 7ad1 6dbf 4a06 df3e
00000100: da4f bdbe 4917 6d3f 0f0e 5ebe 3dd8 15be
00000110: 5d1a cf3e cd7b 02bf ab2e 86bd f108 d53e
00000120: 7882 d23e b4ec 553e 8628 20bf 2de9 8dbe
00000130: 74f2 bebe b345 de3d 77e9 26be a502 7dbf
00000140: b752 023f 04c3 9fbd bfe7 80bf 87e5 67be
00000150: 2e05 0bbe 1913 e73e 7ffe 0a3f a9f4 813e
00000160: fb49 b7be d1ba 7b3e 0c4f 32bf 0794 18bd
00000170: 5fc9 743e 1650 34bf 617c ffbc 86b0 2bbe
00000180: ff71 fabe 20d0 d63e 91f6 bebe dfbd b23e
00000190: f030 243f 4051 8a3e 9c6a 1f3f e55d bb3c
000001a0: b964 8fbf cc9f 803f acef a5be dd1b 643d
000001b0: 4c89 3abf 73d0 093f d481 cf3e 1c98 963e
000001c0: 397b 163f 600c 913e 6195 53bf 36bd 74be
000001d0: 4fad 27be 7c94 71bf 4a21 143e 1e03 423f
000001e0: 311e 6abb b06c 2bbe 245b 043e 0537 e23e
000001f0: cce9 c33b adf1 82be e050 503f 4125 0a3d
00000200: 3a85 783e 8f1f 953e aa0a b03b 8368 e0be
00000210: a1b3 4c3f a6f3 02be 8c75 5dbe e7f1 df3d
00000220: d0b4 6e3e 6c95 3c3e 7e4a c5be b2e0 603d
00000230: 2514 a73e 0314 54bf e0f9 2b3e a808 523f
00000240: b41d d4be 63cd 253d ad03 073f 38ec 55bc
00000250: 9702 813e 141e 10be 5a42 19be 8c5a 4bbe
00000260: a346 d33d 8457 a8bd d697 21bd 506b 8c3e
00000270: 5fd7 eebe 61c1 b53c 9297 2ebe 5e32 bdbe
00000280: 5926 9bbf a0b1 aebe 9845 2fbf d8b2 cd3e
00000290: b7ea bc3d ab1c 0cbf bea2 da3c ad27 9dbd
000002a0: a2f1 1dbf 62e4 1f3e 5612 99bf e664 16be
000002b0: c9f8 0cbf 66c4 003e 41bb d23e 261f 93ba
000002c0: a9f4 a83e 6200 dbbe c7f5 adbf bc88 923e
000002d0: 47ea 6bbe 2023 053e 1424 043f 0245 563e
000002e0: 1c5e 15be abae 60be cb5a 95bd d048 c83e
000002f0: 7795 e03d d053 413f 39b8 bf3e b283 57bd
00000300: 9e90 a2bf 2f43 03c0 3991 84be c534 b13d
00000310: 72c8 603e 8943 8f3f 725e 233f 33ff 5abf
00000320: f1bc 91be 45f1 49bf f734 623f e8d0 80bd
00000330: 6cd6 64bf 7b12 ed3d 6f2f 18bf d707 07be
00000340: 4dba bbbe cbfe 1a3d b550 44bf 0531 363f
00000350: 1a6a 283d 1a18 9a3e b516 4f3e 8a85 633f
00000360: aca6 943e 8d16 50be 8923 303e b2c0 69bf
00000370: 6d1b 153f 36dd a7be e4ca 40bf ffa6 c33d
00000380: 3410 29be 41c4 033f 6019 97be 8f91 a33e
00000390: 87f0 3d3d a379 edbd 32b7 4bbe 3e72 053f
000003a0: 7b33 a53e 900a c13f 22da 5bbf f100 85be
000003b0: d6a5 85bc f24b 903e cf32 0c3f e80f 11be
000003c0: e199 c33e dc29 82be 9a3d 8fbf 6fa9 163f
000003d0: 7ce2 75be f160 4c3e 9711 473e d462 ad3d
000003e0: cfce 22bf f64f bf3e d7e3 0cbe b269 dd3e
000003f0: 21dc f53e 7b47 063f fc05 133f 1601 fe3d
-0.34410596 -0.15876299 -0.20742762 -0.058844578 -0.9162113 0.35902804 0.086362995 -0.059592642
-0.51179427 0.33386314 1.2214159 -0.014931849 -2.0867877 0.31842124 -0.32684934 0.24793616
0.36027488 0.35498512 0.07048164 -0.9012864 -0.653936 0.37026355 -0.084702544 0.19135351
-0.14436801 0.18104999 0.025879586 0.32139462 -0.011670824 0.22122759 0.1004974 0.24380253
0.5618912 -0.5038235 1.1329277 -0.44609007 0.083808474 0.66247183 0.3741221 -0.4998655
-0.25284776 -1.3159759 0.70727736 0.7053898 0.2930622 -0.2530221 -0.5124022 0.5026771
-0.6307527 0.5900604 1.0973024 -0.55304813 -0.09436248 -0.57292247 -0.28883696 -0.12040852
-0.2904424 -0.18480676 -0.069983855 -0.3875753 -1.330384 -0.16267797 -0.9289776 0.43559486
-0.36974984 0.92613655 -0.2168505 -0.1463327 0.404498 -0.50970155 -0.0655187 0.41608384
0.41115165 0.20891076 -0.62561834 -0.27716962 -0.37294352 0.10853138 -0.16299997 -0.9883216
0.5090746 -0.07800868 -1.0070723 -0.22646151 -0.13576195 0.45131758 0.5429458 0.25381973
-0.3579863 0.24582984 -0.69651866 -0.037250545 0.23904942 -0.704347 -0.031187238 -0.16766557
-0.48915097 0.41955662 -0.3729749 0.34910485 0.6413717 0.27015114 0.6227205 0.02287192
-1.1202613 1.0048766 -0.32409418 0.055690635 -0.7286575 0.53833693 0.40528738 0.29412925
0.5878177 0.28329754 -0.8264981 -0.23900303 -0.16374706 -0.94367194 0.14465824 0.75786006
-0.0035723562 -0.1674068 0.12925392 0.44182602 0.0059787985 -0.2557501 0.81373405 0.033726934
0.24269572 0.2912564 0.005372365 -0.43829736 0.7996159 -0.12788257 -0.21626872 0.10934811
0.23311162 0.18416375 -0.38533396 0.054901786 0.32632557 -0.82843035 0.16794538 0.8204446
-0.41428912 0.040479075 0.52739984 -0.013056807 0.25197288 -0.14073974 -0.14966717 -0.1985876
0.10316207 -0.08219817 -0.039451443 0.27425623 -0.4664869 0.022186937 -0.17050007 -0.3695249
-1.2121078 -0.34119892 -0.68465567 0.4017551 0.09224456 -0.54731244 0.02668893 -0.07673583
-0.6169683 0.15614465 -1.1958721 -0.14686927 -0.55067116 0.1257492 0.41158488 -0.0011224493
0.3299916 -0.4277373 -1.359063 0.28619945 -0.23038588 0.1300168 0.5161755 0.20924762
-0.14586681 -0.2194163 -0.07292708 0.39118052 0.10966008 0.7551851 0.37445238 -0.05261583
-1.2700384 -2.0509756 -0.25892046 0.08652643 0.21951464 1.1192485 0.6381599 -0.85545653
-0.28464463 -0.78883773 0.8836207 -0.06289846 -0.8938968 0.115757905 -0.5944738 -0.13186584
-0.36665574 0.037840646 -0.7668565 0.7116855 0.04111681 0.30096513 0.20223506 0.8887564
0.2903341 -0.20321102 0.17201056 -0.91309655 0.58244973 -0.32785958 -0.75309587 0.09553336
-0.16510087 0.51471335 -0.29511547 0.3194699 0.046371963 -0.11595466 -0.19894102 0.52127445
0.3226584 1.5081348 -0.8587972 -0.2597728 -0.016314428 0.28182942 0.5476503 -0.14166224
0.38203338 -0.2542256 -1.1190674 0.58852285 -0.24012178 0.19958855 0.19440304 0.084661156
-0.63596815 0.37365693 -0.13758789 0.43244702 0.48019508 0.5245282 0.57431006 0.12402551

fc2.0.bias f4 [32]
00000000: 2e97 933d be27 203f 71df 92bd a9dc 7b3e
00000010: f266 6dbe d451 a5be 451b e03d 9fda 1ebe
00000020: 60ad 8a3e 9985 d83d 9235 1ebe e37c 68bc
00000030: d673 a03e dbc2 6c3c 27cd 113f 36ad 8d3e
00000040: 2497 34be 4810 293e 0dfa 3e3f 9a6c 3f3e
00000050: c001 adbe efbc 353e 8f65 5dbd c0d9 913e
00000060: de37 ad3b a0f7 f4bd 59ef 133f fec2 a0be
00000070: be49 eb3e 34df 943d d367 723d edc8 a33e
0.072065696 0.6256064 -0.07171524 0.24595894 -0.23183802 -0.32288992 0.10942701 -0.15513085
0.270854 0.10572357 -0.15450123 -0.014189932 0.31338376 0.014450754 0.5695366 0.27671212
-0.1763578 0.16510117 0.746003 0.18693772 -0.33790398 0.17747854 -0.054051932 0.28486443
0.005286201 -0.11961293 0.5778709 -0.31398767 0.45954698 0.07269135 0.059181046 0.31989232

fc3.weight f4 [4, 32]
00000000: 368c 2a3f f76a 323f 7c90 0abf 4a65 f3be
00000010: 22bf 913e 69ea 41be 456f cb3f 0f43 a0be
00000020: 76d3 1040 58a6 87bf ef2d 0dbf 9875 cbbe
00000030: 0d4a cc3e 865d a6be be09 6f3f 5a43 5cbf
00000040: 8ff2 f7be 7883 39be d5c3 7c3f 863e 14bf
00000050: 65b6 22bf 746e 46be d361 afbe 0320 2e3f
00000060: 2976 a6be 1261 7ebf b3f0 703e 5a59 47bf
00000070: 4ec7 7c3f 63b6 4cbf 88c4 c1be 37a1 eb3e
00000080: 6897 153f 5556 843f 1e5d 9fbe 0c72 d4be
00000090: c63c 073f 5197 b6be 300f aa3f 11d1 edbe
000000a0: 19be 1d40 4af6 96bf 7128 21bf 0312 09be
000000b0: 57ea 8d3f 3cec cbbe 846d 2b3f 3943 72bf
000000c0: 8332 0bbf 71f8 a2be 6925 6a3f 91a8 1bbf
000000d0: 7f34 8bbf e6c6 9bbe 8bd6 35bc d659 563f
000000e0: 0b71 e5be d8da 8bbf b673 45be f28b 4dbf
000000f0: 2ac5 a73f 4ef7 64bf 7bc2 96be 96a7 713e
00000100: 8905 2e3f da6d 1e3f 0085 f4be 1c96 06bf
00000110: 96f4 483f e905 b4be a88b c53f d39e aebd
00000120: 55d5 0b40 e6c7 67bf 47c0 0dbf b235 1cbf
00000130: 6ba6 a5be 31f2 82be d3c0 873f 84cd 36bf
00000140: a4ce 98be d518 f2be 4443 853f 303d 22bf
00000150: 85d0 23bf 7cea 99be 6304 97be 06af b83e
00000160: 9d45 d0be bdfb 66bf 066c 123e 8562 8cbf
00000170: d359 013e 9f38 67bf 6b02 88be f038 2b3f
00000180: c2d7 8d3e 5f2a 783f 7012 07bf 0f58 c0be
00000190: 9f63 103e 72a5 16bf b897 893f df3d bbbe
000001a0: 124b 1440 93af 91bf ea82 91be 2bef 16be
000001b0: 64cf 923f c768 e6be a350 3e3f 0762 5ebf
000001c0: ab7e 1bbf 1f01 b4be 6015 643f 9df1 42bf
000001d0: 6a8e 29bf ecaa fcbe bf92 03bf 287a 273f
000001e0: 522b 57be 1335 22bf 70b1 cf3e f36a 72bf
000001f0: 861f 853f 0fa9 2cbf 3cda c7be 2ff8 dd3d
0.66620195 0.69694465 -0.54126716 -0.47538215 0.28466135 -0.18937077 1.5893332 -0.31301162
2.2629066 -1.0597639 -0.55148214 -0.39738154 0.39900246 -0.32493228 0.9337424 -0.8604027
-0.48427245 -0.18116558 0.98736316 -0.57907903 -0.6355956 -0.19378072 -0.3425432 0.68017596
-0.32512024 -0.9936687 0.2352932 -0.77870715 0.98741615 -0.799658 -0.37845254 0.46021435
0.5843415 1.0338846 -0.3112573 -0.4149326 0.5282711 -0.3566232 1.3285885 -0.46448568
2.4647276 -1.1793911 -0.62952334 -0.13385777 1.108714 -0.3982867 0.6696398 -0.94633824
-0.5437395 -0.3183017 0.91463333 -0.60804087 -1.0875396 -0.30425185 -0.011098514 0.8373083
-0.44812807 -1.0926161 -0.19282421 -0.80291665 1.3107045 -0.89439857 -0.29445252 0.23599085
0.67977196 0.6188637 -0.4775772 -0.525728 0.7849821 -0.3516076 1.5433245 -0.08526387
2.1848958 -0.90539396 -0.55371517 -0.6101943 -0.3235353 -0.25575402 1.060572 -0.7140734
-0.29845154 -0.4728457 1.0411153 -0.63374615 -0.6399005 -0.3006171 -0.29495534 0.36071032
-0.4067811 -0.9022787 0.1429902 -1.0967566 0.12631921 -0.9032077 -0.26564345 0.66883755
0.27703673 0.96939653 -0.5276251 -0.37567183 0.14100502 -0.588462 1.0749426 -0.3657064
2.317082 -1.1381706 -0.28420192 -0.14739673 1.146954 -0.45001814 0.7434179 -0.8686833
-0.60740155 -0.35157105 0.89095116 -0.7614992 -0.6623293 -0.49349153 -0.5139579 0.6542077
-0.21012619 -0.63362235 0.40565062 -0.9469444 1.0400245 -0.6744546 -0.39033687 0.10838353

fc3.bias f4 [4]
00000000: 304d 2bbe d15b 223c 81fe 0c3e b38d bd3c
-0.16728663 0.009909586 0.1376896 0.023138857
